model/handsign_classifier/handsign_classifier.tflite (tflite, 7504 bytes, 6 tensors)

arith.constant f4 [26, 10]
000000 cd 0d fd 3e 1a c2 9d be 9c ad 83 bd 22 7a 89 3e
       0.49424592 -0.3081215 -0.06429598 0.26850992
000010 a8 ad f5 3d f2 64 fa 3e 5a a0 6b be 3a 49 7b bf
       0.11996013 0.4890514 -0.23010388 -0.9815861
000020 ab 59 cc bd 5b 90 03 bf 7c 86 95 bd 34 3d e0 3e
       -0.0997804 -0.51392144 -0.073010415 0.43796694
000030 11 ad be be 2a 8b 91 be d5 5b 07 3f ce 33 e4 3d
       -0.37241414 -0.28426486 0.528745 0.111426935
000040 74 c8 89 bf f4 ea 4f 3f fe 10 13 be 1c 89 84 3e
       -1.0764298 0.81217885 -0.14361951 0.25885856
000050 1f e4 08 bd be 26 06 3f 3e 13 3c bf 97 c4 24 be
       -0.03342068 0.52402866 -0.7346686 -0.16090618
000060 91 73 14 3e ef 6f a0 3e 7b c7 85 3d 82 0d 97 3e
       0.1449721 0.313354 0.065321885 0.29502493
000070 cf b8 88 be c3 fb 71 3f 79 af a3 be de 47 76 3e
       -0.26703498 0.9452478 -0.31969813 0.24050853
000080 07 46 91 3e 29 b2 38 be 87 10 0f 3f d5 c1 46 be
       0.2837374 -0.18036713 0.55884594 -0.19409879
000090 17 8f c3 bf 2f 02 49 3f a2 67 51 bf ce ca 07 3e
       -1.5278043 0.78518957 -0.81798756 0.13260958
0000a0 e2 df d2 3e 39 5a 8e 3d 60 ac 2b bd 61 28 d1 bd
       0.41186434 0.06950802 -0.041912436 -0.1021278
0000b0 79 f7 56 3e e8 ba d8 3e 1e c2 4f 3e 70 b8 f3 be
       0.20992841 0.42330098 0.20288894 -0.47601652
0000c0 dd 9a 7c be 31 95 54 bf da cb 27 39 1d 00 25 3f
       -0.2466845 -0.8304015 0.00016002302 0.644533
0000d0 83 a0 2c bf 12 e7 74 bf a7 ad 01 3f 47 82 8d 3e
       -0.6743242 -0.95665085 0.506556 0.27638456
0000e0 c6 d8 69 bf be a4 b6 be 94 8d cb 3e d5 cf a1 bc
       -0.91346395 -0.35672563 0.39756453 -0.019752422
0000f0 cd 65 c5 be 3d e6 98 3e 9a 45 3a 3e 6c 6f 07 3f
       -0.3855423 0.29863158 0.18190613 0.5290439
000100 b0 31 cd bf 96 f5 73 bf 53 38 35 3f 5e 37 da 3e
       -1.6030788 -0.9529661 0.7078907 0.42620367
000110 51 51 c7 bc 89 48 07 3e 1b 2d 72 3e 0b 43 b8 3e
       -0.024330767 0.13211264 0.23650019 0.3598865
000120 01 e0 e7 be 51 9b 59 bc 61 22 05 c0 10 4b 96 bf
       -0.4528809 -0.013281659 -2.0802233 -1.1741657
000130 a4 db cb 3d 04 d5 d9 3e 7c e8 74 3f c9 2b bf 3e
       0.099540025 0.4254533 0.95667243 0.37338093
000140 ca c4 53 3f cc 81 fc be 5d d9 c4 3e ee c2 e3 bf
       0.8272215 -0.49317777 0.38447085 -1.7793863
000150 e6 86 3b be 7c 5b 85 3e 58 26 b3 bf 7d 31 33 3f
       -0.18313178 0.2604636 -1.3996077 0.6999739
000160 e0 15 88 3e 16 59 4d bf 86 04 97 3e d1 bf 19 be
       0.2657919 -0.8021406 0.2949564 -0.15014578
000170 0d 26 04 3f ec b2 02 3d e4 b9 2b 3f 62 3c 80 bf
       0.5162056 0.031908914 0.6708052 -1.0018427
000180 70 8e ab be 36 71 ed 3e ac 7b 90 bf c3 cb 23 bf
       -0.3350711 0.46375436 -1.1287742 -0.6398279
000190 3b 63 df bf 8c c7 75 bf 4c bd 03 3f 1d 7a 67 3f
       -1.7452158 -0.9600761 0.5146072 0.90420705
0001a0 88 1c cd 3e d5 f0 92 bf d2 27 96 be 1d 96 0d bf
       0.4006083 -1.1479746 -0.29327255 -0.5530718
0001b0 e7 bc 10 3f 06 60 05 bf 86 31 72 3e 20 f5 67 3d
       0.5653824 -0.52099645 0.23651704 0.056630254
0001c0 1a f0 d8 3d 03 d2 8f be 82 50 0b 3e 09 d6 11 3f
       0.10592671 -0.28089914 0.1360493 0.56967217
0001d0 78 ab a9 3d b9 9d 80 bf d3 91 17 be 3e f5 56 bf
       0.08284658 -1.0048133 -0.14801721 -0.8396796
0001e0 00 43 60 be ba 2a 51 bf c0 19 b2 bf f6 ba a1 bf
       -0.21900558 -0.8170582 -1.3914108 -1.2635181
0001f0 10 0d e6 be d1 ca 52 bd 86 91 93 bf 9c 19 ae bf
       -0.4493184 -0.051462952 -1.1528785 -1.3601565
000200 b8 b7 23 bf 37 8e 3a bf 56 2c e1 be aa 4f 09 bf
       -0.6395221 -0.7287325 -0.43979138 -0.5363718
000210 e1 4c 15 c0 6b 97 99 bf 9f 5e d4 be f8 e0 05 bf
       -2.3328173 -1.1999334 -0.4147844 -0.522964
000220 da 20 68 bf a4 78 3d bf 3c 3a 10 bf 6f 03 1a bf
       -0.9067513 -0.7401221 -0.5633886 -0.6016149
000230 77 af 51 bf ee 9d ff be 3e ff 0d c0 e7 0c 18 bf
       -0.81908363 -0.49925178 -2.2187037 -0.5939469
000240 9f 01 bf be 41 27 9b be fd 47 d8 bf b0 17 6a bf
       -0.37305924 -0.30303386 -1.6896969 -0.91442394
000250 29 24 37 bf 6a 48 43 bf bc fe cb be 77 a7 0f bd
       -0.7153955 -0.7628237 -0.39842784 -0.035071816
000260 6d 46 02 c0 88 a2 b9 bf b8 16 39 bf 9e 44 57 bd
       -2.0355484 -1.4502726 -0.7230029 -0.052555673
000270 e3 64 28 bf c6 77 8f bf 80 7b b0 be 55 40 09 bf
       -0.6577894 -1.1208427 -0.34469223 -0.5361379
000280 5d 0b 46 bf 06 9b 44 bf 5f 4b 15 c0 9b 02 93 bf
       -0.7736109 -0.76799047 -2.3327253 -1.148517
000290 1a 91 b6 be d0 d4 e5 be 2f dc 59 bf 82 3c 3b bf
       -0.3565758 -0.44888926 -0.851016 -0.731392
0002a0 3a 9c 0c bf d8 71 83 be 92 81 47 bf 38 41 2f bf
       -0.5492588 -0.25672793 -0.77932084 -0.6845889
0002b0 6a 9d cb bf cc f7 94 bf c5 6b 0b bf 97 0f 78 bd
       -1.5907414 -1.1638122 -0.5446132 -0.060561743
0002c0 22 15 2a bf 39 8f 77 bf 8e f1 d3 be 88 77 44 be
       -0.66438496 -0.96702915 -0.4139523 -0.19186223
0002d0 e3 c5 82 bf 52 ef 9a be f0 55 e2 bf 2b b6 bd bf
       -1.021664 -0.30260712 -1.7682476 -1.4821218
0002e0 31 cb 43 bf 4f b2 a3 be c6 d4 80 bf b1 b3 34 bf
       -0.7648192 -0.31971976 -1.0064933 -0.7058669
0002f0 6a 7d f7 be 0e a9 04 bf 63 b8 45 bf df ac df bd
       -0.4833787 -0.51820457 -0.77234477 -0.109216444
000300 87 8f 0c c0 4b 95 8d bf 88 fb c2 be 6f 1e 17 bf
       -2.1962602 -1.1061186 -0.38082528 -0.5903081
000310 f0 0e 88 bf 1d 49 97 bf 58 b6 be be d4 bb 06 bf
       -1.0629559 -1.1819187 -0.37248492 -0.5263035
000320 1a ec 39 bf e4 78 0d bf 04 b0 1d c0 be 46 9b bf
       -0.7262589 -0.5526259 -2.4638681 -1.2130964
000330 fb 98 43 bf 39 08 34 be 0e 56 8e bf 36 72 ac be
       -0.76405305 -0.17581262 -1.1120012 -0.33680886
000340 b6 5f 04 bf 50 92 09 bf eb 40 11 bf 05 14 74 be
       -0.51708543 -0.5373888 -0.5673968 -0.23835762
000350 09 ca be bf 84 df ad bf ad b9 94 bd 2e b6 22 bf
       -1.4905406 -1.3583837 -0.07261977 -0.63559234
000360 7c 0d 88 bf 57 ac 94 bf 1d 5c 7a bf f9 4e 41 be
       -1.0629115 -1.1615094 -0.97796804 -0.18877782
000370 ec c1 38 bf d3 09 0b be cc 04 d9 bf c8 78 79 bf
       -0.721709 -0.13577966 -1.6954589 -0.9744992
000380 c3 8c 57 bf 2f 4a 09 be 0a 55 95 bf d5 57 56 bf
       -0.8419916 -0.13407205 -1.1666577 -0.8372777
000390 f6 bf f9 be 9f 65 64 be ae cb 4b be 52 22 c2 be
       -0.48779267 -0.2230439 -0.19901916 -0.3791681
0003a0 15 d6 1b c0 46 15 1c bf 8e fd 38 bf 0c f9 0f bf
       -2.4349415 -0.6096996 -0.72261894 -0.5623939
0003b0 f6 b6 ad bf f6 81 87 bf a8 81 8c be 71 91 bc be
       -1.357146 -1.0586536 -0.2744267 -0.36829713
0003c0 25 d8 28 bf 29 4e 39 bf bc 12 fd bf cd 69 75 bf
       -0.6595481 -0.7238489 -1.9771342 -0.95864564
0003d0 1e 6a 9b be 9a e7 d9 be b0 e9 88 bf af 4b 84 bf
       -0.30354398 -0.4255951 -1.0696316 -1.0335597
0003e0 d4 91 1e bf db 31 13 be 1d a4 b8 be 0e d6 cb be
       -0.61941266 -0.14374487 -0.36062708 -0.39811748
0003f0 51 43 f1 bf 29 33 b6 bf e7 68 0e bf f1 8d ac 3a
       -1.8848668 -1.4234363 -0.5562882 0.001316486

arith.constant1 f4 [10, 20]
000000 b9 4b 6d 3f d0 2a 2b 3f bc ce a0 3e f7 18 ec 3f
       0.9269367 0.668622 0.31407726 1.8445119
000010 fe ac cb 3f 97 4a c5 3e 4b c2 5f be d0 70 33 3f
       1.5912168 0.3853347 -0.2185146 0.70094013
000020 ca 78 8f 3f 83 0a 26 3f 59 93 46 bd c8 84 40 3f
       1.1208737 0.6485979 -0.048480365 0.7520261
000030 e0 8c c5 3d 92 6c 85 3e fc fe b5 be 82 7a 98 3e
       0.096460104 0.26059395 -0.355461 0.29780966
000040 47 f2 22 be d2 fe 1c be 4d 2a 0c be 29 30 6d 3f
       -0.15912734 -0.15331581 -0.13688011 0.9265161
000050 87 c9 4a 3e c2 84 2f 3f d9 64 26 3f 8b fc dc be
       0.19803439 0.6856195 0.6499763 -0.43161425
000060 6f 4f 62 3f 1c ec d2 be 16 24 c6 3e 4f 35 8d 3e
       0.88402456 -0.41195762 0.38699406 0.27579734
000070 62 b6 9d 3d 32 35 bd 3f 80 8d 0a 3e dc 77 c1 3e
       0.077008024 1.4781859 0.1353054 0.37786758
000080 38 32 71 bf 5d e1 35 bf 28 03 bf 3f 42 71 ee be
       -0.9421725 -0.71047 1.4922838 -0.46570784
000090 5a 6a c9 3e ca 3b 69 3e 2c 16 fc 3e 14 d6 1e 3e
       0.39338952 0.22776714 0.49235666 0.15511352
0000a0 1b 84 52 3f ee c2 41 3e 87 f3 0e bd 19 5d 76 3f
       0.82232827 0.18922016 -0.034900215 0.96235806
0000b0 2b cc 52 bf 1e a4 ec 3c f5 4c 90 be 2a f4 9d 3e
       -0.82342786 0.02888685 -0.28183714 0.30850345
0000c0 17 89 34 3f 2b 2a 57 be 77 9e 42 3f c7 9f e9 3d
       0.7052168 -0.2101218 0.7602305 0.11407428
0000d0 e1 5d 3e 3f ba 69 4b be 53 31 26 be 97 a1 87 3f
       0.74362 -0.1986455 -0.16229753 1.0596188
0000e0 c0 ee 8b be d8 11 85 3d 09 06 82 be 24 49 68 3c
       -0.2733059 0.06497544 -0.2539523 0.014177594
0000f0 58 06 87 3e 91 ff c6 3e 20 17 86 3e aa 5e 33 3e
       0.26372027 0.38866857 0.26189518 0.1751658
000100 5e 76 62 be 3d 46 a2 3f ab 17 48 3e 55 3a 42 bb
       -0.22115466 1.2677685 0.19540279 -0.002963682
000110 12 11 e1 3e 8d 7b fa 3e e0 bd d8 3f bf c1 68 bc
       0.43958336 0.48922387 1.6932945 -0.014206349
000120 bf ce f0 3e 60 90 8b 3f a3 dc c9 3c 62 aa 98 3e
       0.47032735 1.0903435 0.02464134 0.29817492
000130 2d 03 d1 3e c8 d8 92 3f 08 13 f9 3e 9e a5 a7 bc
       0.40822735 1.1472406 0.48647332 -0.020464715
000140 af d8 86 3d 1c a2 e6 3f 73 c5 db 3f 2a fa 66 3f
       0.06584298 1.8018222 1.7169632 0.9022547
000150 c6 99 d8 bd 7f d0 12 bc b0 b9 d3 3d 9e 5c 7e 3f
       -0.10576205 -0.008960842 0.103381515 0.9936007
000160 5a cf 45 be 16 33 d1 bd fc 2f 9b 3f 06 ce 5f 3f
       -0.1931738 -0.10214822 1.2124019 0.8742374
000170 8f 55 b1 be 59 d8 61 bd 8a 89 87 bd 40 11 56 3f
       -0.3463559 -0.055137966 -0.0661803 0.8362007
000180 ed 0d 16 3d 62 dc 03 40 43 2f 70 3d 8d 02 53 3f
       0.036634374 2.060326 0.058638822 0.8242577
000190 d7 27 a4 be 22 39 59 3f 90 d7 b0 3f 01 02 74 3f
       -0.32061645 0.848528 1.3815784 0.9531556
0001a0 6f 33 d9 3f f5 a1 96 3e df 5f b7 3e 9c e8 4d 3f
       1.6968821 0.29420438 0.3581533 0.8043306
0001b0 28 69 b3 ba 73 0b 63 3f 79 df c0 3d 2a 57 bf 3f
       -0.0013687955 0.88689345 0.09417624 1.4948475
0001c0 93 1d 80 3f 28 58 c4 3e 14 86 24 be 56 e9 57 3f
       1.0009025 0.38348508 -0.16066772 0.8434042
0001d0 bb e5 b6 3e 40 50 ab be b6 e3 be 3e da e1 d5 3f
       0.35722145 -0.33459663 0.37283105 1.670955
0001e0 72 a7 84 3f 70 56 2f 3e fd 17 ac 3d a4 b7 01 3f
       1.03636 0.17122817 0.08403013 0.5067084
0001f0 b1 6c 24 bf e6 a0 b6 3e ee 2b 61 3f 42 8a 84 3d
       -0.6422835 0.3566963 0.87957656 0.06471683
000200 61 aa 2c 3f 53 20 1a 40 4c 15 fb 3e 83 e6 c6 3a
       0.6744748 2.408223 0.49039686 0.0015174899
000210 32 3b c4 3f 3c da 06 3f e1 16 69 3f 66 8a b0 3e
       1.5330565 0.5267675 0.91050535 0.3448059
000220 d5 ac 05 3f 74 c5 37 3e 51 00 f1 3e 78 a1 97 3b
       0.52216846 0.17946416 0.47070554 0.004627403
000230 56 1e 85 be fc f6 63 bd 05 c5 43 bd 9c e2 3d bd
       -0.25999707 -0.055655465 -0.047795314 -0.04635869
000240 86 08 77 3f 9f 92 81 be d5 06 fd bf c9 e1 0a 3d
       0.9649738 -0.25307176 -1.976771 0.03390673
000250 0d ff f9 3e eb 55 4e bf f8 e1 a3 3f 63 e5 29 3e
       0.488274 -0.8059985 1.2803335 0.1659141
000260 45 7b 27 bf 75 86 fa bd 2f 36 06 3e 80 ab 43 3e
       -0.6542247 -0.12232677 0.13106607 0.19108391
000270 d6 c3 fd bf 53 82 fe 3e 37 c5 f6 bf f4 55 7b 3e
       -1.9825389 0.49708804 -1.9278935 0.24544507
000280 67 40 45 3f 67 5c 41 3d 1e 9d f9 be 99 c4 18 be
       0.77051395 0.047207262 -0.48752683 -0.14918746
000290 6e 28 e1 3f 26 54 00 3f b7 fa 37 3f ea 60 9e bc
       1.7590463 0.501284 0.71866935 -0.019333322
0002a0 4a b6 f6 3e da f7 b0 bf 01 43 05 bd 8b 52 34 3d
       0.4818595 -1.3825638 -0.032534603 0.04402403
0002b0 38 1a 85 be 52 30 f8 3e d1 a7 d5 3e e4 ae ad 3e
       -0.25996566 0.48474365 0.41729596 0.33922493
0002c0 a6 46 15 3f 67 77 2e be da ef 1a 3f 7c 8b ce 3d
       0.58310926 -0.17037736 0.60522234 0.10085198
0002d0 81 c7 4a bf f0 02 a6 3e ca 8f 33 3e 24 95 0c bf
       -0.7921067 0.32424116 0.1753532 -0.5491507
0002e0 c5 b4 68 3f ac f1 8b 3f ac 5d 45 bb 65 71 a1 3e
       0.9090083 1.0933127 -0.0030115647 0.31531826
0002f0 8e ca 37 bf 37 f1 ab 3d 21 53 8e 3f 99 3e 93 3e
       -0.7179345 0.083956175 1.1119119 0.28758696
000300 25 bd 68 be 97 c4 64 3f 62 66 75 3f 2a 11 b5 bd
       -0.22728403 0.8936247 0.9585935 -0.088411644
000310 67 ca 2c 3d 12 63 83 3f 51 ba 8d bb 6f 8f a5 3e
       0.042185213 1.0264609 -0.004325189 0.32335994

arith.constant2 f4 [26]
000000 4f 3f 19 bf 4b 15 2e bf 84 90 d8 bf 76 76 9b 3f
       -0.59862226 -0.6800124 -1.6919103 1.2145526
000010 90 71 98 bf 2d ab 8d 3f 45 2b 52 3e a1 af 5f 3f
       -1.1909657 1.1067864 0.20524319 0.87377363
000020 42 d6 0f 3f b3 8b fd 3e eb 4b 83 3f ab 8c f0 bd
       0.56186306 0.49520645 1.0257543 -0.1174558
000030 cd a6 ca be 58 05 97 be 4a 08 98 be 1e 90 a1 be
       -0.39580384 -0.29496264 -0.29693824 -0.31555265
000040 91 b2 93 be 2b 88 d2 be ed a9 b0 be a0 07 97 be
       -0.28847173 -0.41119513 -0.34504643 -0.29498005
000050 c1 0a 8b be 87 5c b7 be d0 87 c5 be d4 4b 9e be
       -0.27156642 -0.3581278 -0.3858018 -0.30917227
000060 45 87 aa be 60 dd af be
       -0.33306327 -0.34348583

sequential_1/dense_1_2/Add/ReadVariableOp f4 [10]
000000 e7 6b c8 3e 5a 32 88 be 8d b6 c6 3f 1d ac 14 3f
       0.39144823 -0.26600915 1.552446 0.58075124
000010 ae 10 38 3f 29 f8 3b bf ee 08 b9 be bc e0 7e 3f
       0.7190045 -0.7342554 -0.36139625 0.9956167
000020 2f 84 72 3f 89 28 ef be
       0.94732946 -0.46710613

sequential_1/dense_1/Add/ReadVariableOp f4 [20]
000000 ec 20 49 3e 4a 9d e3 bf 47 51 c6 bf 6d 47 8b bf
       0.19641465 -1.7782376 -1.5493554 -1.0881172
000010 9b dc 63 be 8a 33 57 bf 13 1d 79 bf 46 9d c2 bf
       -0.22252123 -0.8406302 -0.9730999 -1.5204246
000020 58 32 f6 3d 0e 30 94 bf 31 63 50 bf 48 86 a4 bf
       0.12021321 -1.1577165 -0.81401354 -1.2853479
000030 d7 22 a5 bf 54 c5 86 bf 97 ec 52 bf ba ca 65 bf
       -1.2901257 -1.052897 -0.8239226 -0.8976246
000040 4a b9 62 bf 17 63 75 bf cf 7d 5c bf 54 78 9b bf
       -0.8856398 -0.95854324 -0.8612947 -1.2146096

sequential_1/dense_1/MatMul f4 [20, 42]
000000 a0 c4 ae 3c 48 c8 3b bd b5 3a 90 be 44 bd 05 c0
       0.021333992 -0.0458453 -0.2816979 -2.0896769
000010 2b b0 a6 be 61 21 48 bf df 0e 8c bd 55 b7 08 bf
       -0.3255628 -0.7817593 -0.06838774 -0.5340474
000020 b2 04 53 3e 58 8d ca bd 8b 7d 33 bf ed 06 85 bd
       0.2060726 -0.098902404 -0.7011344 -0.064954616
000030 b5 e2 1a bf 79 4a 2d 3d f5 45 8d be 94 80 ae 3d
       -0.6050218 0.04230735 -0.27592435 0.08520618
000040 0a 18 12 be de 5d ac bc 6f cf 49 bf 16 9e 60 3b
       -0.14266983 -0.021040853 -0.78832144 0.0034273914
000050 3f a4 14 bf ef 7a 60 3d cc 33 1f 3e 31 98 3e 3e
       -0.5806312 0.05480474 0.15547103 0.18612744
000060 c0 9d 2a 3f be 39 5f 3e bd cf 84 be 53 8d d5 3d
       0.6664696 0.2179937 -0.25939742 0.10427346
000070 29 4d 45 bf 6c a7 16 3e d1 fb da 3c a2 e1 9d 3e
       -0.7707086 0.14712304 0.026731404 0.30836207
000080 cf 18 4e 3f 23 75 a5 3e 8c f3 00 3f 37 fb 76 3e
       0.80506605 0.3231593 0.50371623 0.24119268
000090 cf 51 93 be 8c d5 5a 3e d2 1d 94 3d 09 3a d1 3e
       -0.28773353 0.21370524 0.0723225 0.4086459
0000a0 54 42 91 3f ef ab b4 3e f4 14 0d 3e 4d c3 80 be
       1.1348367 0.35287425 0.13777524 -0.25149003
0000b0 a4 dc 77 be cd 9c 5c 3f e9 e2 d4 bd c4 21 3f 3e
       -0.24205261 0.8617676 -0.10394842 0.18665224
0000c0 75 51 0a 3e 95 b1 44 bd fe 08 ec 3d 2c 2d cb bd
       0.13507636 -0.048020918 0.115251526 -0.09920725
0000d0 44 51 5c bd 02 54 3f bc 5a 62 6c bd 63 f2 57 bd
       -0.05378844 -0.011677744 -0.057710983 -0.052721392
0000e0 c4 ec 4f bd 28 21 7d be f2 49 0b bb b8 35 cf bd
       -0.050762907 -0.2471968 -0.0021253792 -0.10117668
0000f0 87 5e 03 bc 4e c1 25 bd a1 10 03 bd 66 f9 e3 bd
       -0.008018143 -0.040467553 -0.03199828 -0.11131553
000100 36 9f 3c bd 07 7e 1b bf b1 05 f5 3d be 90 00 c0
       -0.046050273 -0.6073918 0.11963976 -2.0088344
000110 04 fe f6 3d 68 aa f3 3c d7 34 53 bd a7 0f b9 bd
       0.120601684 0.029744342 -0.051564064 -0.090361886
000120 a0 49 50 3c 7b 2f aa be 45 99 28 3d 10 78 ab bf
       0.012712866 -0.3323935 0.041161794 -1.3396015
000130 ec f6 44 3e e5 f7 6a 3d 89 e7 6b be b4 5f 24 3d
       0.19234818 0.057365317 -0.23037542 0.040130332
000140 04 aa ad 3c b7 b6 84 3e 8a 5b 05 3f 33 01 29 3e
       0.021199234 0.2592065 0.520928 0.16504364
000150 c8 4e 80 3e 2c 58 75 3e 16 47 0a 3d 13 b8 79 3f
       0.25060105 0.23959416 0.0337592 0.975465
000160 bf 1d 08 bc f3 7d c8 3e 45 1f 9a bd 5c 5e 62 3e
       -0.008307873 0.39158592 -0.075254954 0.22106308
000170 5a 33 e2 bd 96 29 2c 3e ad ca dd 3d be 0b 92 bc
       -0.11044951 0.16812739 0.10829673 -0.017827865
000180 5b e7 c1 3d 96 51 32 3d a0 24 32 3d 15 2e 3d 3d
       0.09467956 0.043534838 0.04349196 0.046186525
000190 ef 57 a0 bc 78 67 91 3d 10 c8 0b 3e 30 1a 5e bd
       -0.01957318 0.07099813 0.13650537 -0.054224193
0001a0 9f 26 cc 3d ba 29 b6 bd 09 6a 1b 3d d9 fd 15 bf
       0.09968304 -0.088946775 0.03794292 -0.58590466
0001b0 7e 2e 4a 3d 6a 7e c3 bf a5 12 fb 3e 8a 83 a3 bd
       0.049360745 -1.5272954 0.49037662 -0.079840735
0001c0 b3 23 e2 3c d4 26 6d bd 2b 6e 00 3d cf df 24 bf
       0.027604913 -0.057898358 0.031355064 -0.64404005
0001d0 24 6a e6 3b f4 58 f5 bf 9f 0e 39 3e bd 29 15 3d
       0.007031696 -1.9167771 0.18071984 0.036416758
0001e0 7b 83 21 3e 17 3c ca 3d 24 fd fe 3d 28 84 57 3e
       0.15772812 0.098747425 0.124506265 0.21046507
0001f0 48 ff af 3e 80 24 ef 3d 50 43 77 3e 06 65 c9 bd
       0.34374452 0.11676884 0.24146771 -0.09833722
000200 ae 92 31 bd 1e 53 b0 3e f3 c3 7b 3c 6e f9 11 be
       -0.043352775 0.34438413 0.015366542 -0.14255306
000210 31 75 6b 3d d1 91 d4 bd de 57 a4 3d 26 07 03 c0
       0.05748481 -0.10379375 0.08024572 -2.0473113
000220 c2 d1 19 bd c1 e5 b6 bb f2 ad cf bc ae 39 10 3c
       -0.037553556 -0.005581588 -0.025351498 0.008802814
000230 08 ac 55 3c 89 10 9b 3d 01 8d 4c 3c b1 65 43 bd
       0.013041504 0.07571513 0.01248479 -0.047704402
000240 f3 a1 08 bd 79 e4 25 bc 79 6b 00 bd 2f 4b 0a 3c
       -0.03335757 -0.010125273 -0.031352494 0.008440777
000250 e5 7e 82 3b 06 90 23 3e ed 20 89 3b 7a be 71 3e
       0.003982412 0.1597291 0.0041848333 0.23607817
000260 46 06 f1 3b db 8f 79 bd dc c7 ec bc be e0 32 bd
       0.007355484 -0.060928207 -0.028903894 -0.043671362
000270 33 9d cc bc b1 7b 37 3e b0 10 89 3d 49 d6 6a 3e
       -0.024977302 0.17918278 0.06692636 0.22933306
000280 4e f3 7c 3d b6 58 40 be dc d3 04 bd 03 79 2e be
       0.06175547 -0.1878384 -0.032428607 -0.1703835
000290 52 53 35 bd 96 23 dd bc 6a 4d a4 3d 05 81 8d 3d
       -0.044268914 -0.026994508 0.08022578 0.06909374
0002a0 42 d4 81 3e e0 09 20 3d 5d 5a 8d 3e d4 3e ac 3d
       0.25357252 0.039071918 0.27608004 0.08410421
0002b0 77 46 25 3e 26 60 66 3e 06 de b0 3d b9 ec 4e 3e
       0.16140161 0.22497615 0.086360976 0.2020749
0002c0 28 52 dd 3d 6e 21 57 3e fb a9 c1 3d e7 51 20 3e
       0.10806686 0.21008846 0.09456249 0.15656243
0002d0 3e c1 82 3c a4 6d 26 3e d5 eb cb 3c c9 61 1d 3e
       0.015961286 0.16252762 0.024892727 0.15369333
0002e0 ad ba 81 bc dd de b3 bc ab f2 8c 3d 88 86 25 3e
       -0.015836084 -0.021956855 0.06882223 0.16164601
0002f0 9c a4 e0 bc c5 0b 0a 3e 4f b9 83 bd 59 64 32 3d
       -0.027422242 0.13481052 -0.06431829 0.04355273
000300 3a c5 7e bf 97 27 a4 bc ee 4e c8 3c 9d 18 47 3e
       -0.99519694 -0.02003841 0.0244517 0.19442983
000310 99 94 c6 bd fd 12 51 3e b1 2c d6 3c 67 6b d2 3d
       -0.096963115 0.204174 0.026144357 0.102743916
000320 11 db f3 3d bf fe 53 3d 18 eb 60 bd ed 07 88 3e
       0.11907018 0.051756617 -0.054911703 0.26568547
000330 ae 93 20 be 82 bd 8c 3e 8c e7 9a bd f5 ed 7c 3e
       -0.15681335 0.27488333 -0.07563695 0.24700148
000340 35 60 79 bd e5 31 18 c0 48 54 89 bd b0 35 ed 3d
       -0.060882766 -2.3780453 -0.067055285 0.11582506
000350 26 8f 3f be ab 5d b2 be 08 e9 96 be 58 a7 f7 bd
       -0.1870695 -0.34837088 -0.29474664 -0.12092465
000360 03 3d e9 be ad b0 5f 3d 31 b2 85 bf 0c 10 93 3c
       -0.4555436 0.05461185 -1.0445005 0.017951988
000370 69 28 03 3d 93 bc 50 be 5e 85 bd 3c e5 f2 c7 bd
       0.03202096 -0.20384435 0.023134883 -0.09763125
000380 04 1a 0d bd 7c c8 11 be d0 ee 38 bd 4f 2e 2e be
       -0.03444864 -0.14236635 -0.045149624 -0.17009853
000390 fc 4f e5 3c 52 37 ae bd e5 7e 39 bd f6 56 ea 3b
       0.027992241 -0.08506645 -0.04528703 0.00715148
0003a0 b3 e7 e3 bc 80 ab 04 3e 02 40 3c 3e 15 48 7e 3e
       -0.027820444 0.12956047 0.18383792 0.24832185
0003b0 f0 5d 39 3d de 16 40 3c d5 69 a4 be c3 67 02 3d
       0.0452556 0.011724202 -0.32111993 0.031837236
0003c0 16 b8 25 be f3 52 23 3e 1c a3 74 be 28 d7 60 3e
       -0.16183504 0.15949611 -0.23890346 0.21957076
0003d0 40 7e 6e 3d 87 43 9b 3c 66 e1 96 bf 6a e7 95 3d
       0.05822587 0.018953098 -1.1787536 0.07319529
0003e0 6f 52 bd bf 45 b7 4a 3e 10 23 89 bf ed 8d 3f 3e
       -1.4790782 0.19796474 -1.0713825 0.18706484
0003f0 3c f0 c4 3d 19 f9 58 be 72 f0 17 3e 2f ec e1 be
       0.096161336 -0.21188773 0.14837816 -0.44125506
