model/handsign_classifier/handsign_classifier.tflite (tflite, 6624 bytes, 6 tensors)

arith.constant f4 [6, 10]
0.28448713 -0.22005433 0.91609955 0.112124585 0.11734063 -0.91387975 0.44740418 -0.9625845
0.9703609 -1.3638257 0.64766014 -0.48941576 -0.955867 0.16642122 -0.22242121 -0.19172952
-1.6504868 -0.69892377 -0.45363453 0.74362916 -0.83854115 0.9421297 -0.7630459 0.6936496
-1.4559789 0.8583557 0.4085454 0.09030006 0.60585713 -0.54785144 1.1057261 -1.9959172
-1.1757516 -2.0105205 0.8606177 0.79793 -1.4542762 0.013712443 -0.89254636 -0.9363991
0.36360547 -0.23250571 0.6764177 -0.49868384 0.5664644 -1.3955225 0.4231124 0.5936604
-1.6288553 -0.8980881 -1.6283743 -0.4606192 0.20334671 -0.3856849 0.549724 0.09198413
0.12889898 -0.045360092 0.24722709 0.5720262
00000000: 4ca8 913e ec55 61be 8085 6a3f 93a1 e53d
00000010: 4950 f03d 06f4 69bf 2912 e53e f06b 76bf
00000020: 9269 783f d791 aebf 0ecd 253f b494 fabe
00000030: b3b3 74bf 536a 2a3e 63c2 63be be54 44be
00000040: 2743 d3bf abec 32bf c942 e8be 7b5e 3e3f
00000050: a2aa 56bf 692f 713f fa56 43bf 0593 313f
00000060: 845d babf 33bd 5b3f dd2c d13e 3def b83d
00000070: 7419 1b3f fe3f 0cbf 6f88 8d3f 377a ffbf
00000080: 077f 96bf 5eac 00c0 7151 5c3f 2445 4c3f
00000090: b925 babf 28aa 603c eb7d 64bf dab7 6fbf
000000a0: 7f2a ba3e fa15 6ebe b629 2d3f 7d53 ffbe
000000b0: d003 113f 7ba0 b2bf 30a2 d83e 21fa 173f
000000c0: 557e d0bf 1ae9 65bf 926e d0bf 48d6 ebbe
000000d0: 1f3a 503e 7e78 c5be b6ba 0c3f 2d62 bc3d
000000e0: 18fe 033e 81cb 39bd 1929 7d3e 4f70 123f

arith.constant1 f4 [10, 20]
-0.86187744 -0.98579574 -0.028415706 -0.08122167 -0.25876826 0.12480904 0.6379342 -0.18558185
-0.63105816 -0.036428586 -0.2136502 -0.21617262 -0.4964648 0.69504786 0.060060557 0.9712893
0.6823727 0.6962364 -0.118909076 -0.0352083 0.2536206 -0.095890574 -0.030489085 -0.8504512
-0.7796424 0.5465162 0.50288594 -0.29119116 0.04320671 0.40216348 0.7030515 -0.118016
-0.26095477 0.27268878 -0.007109914 0.05447261 -0.6366963 0.035074953 0.7065541 0.3574139
0.31584346 0.6258145 0.0675059 0.34898958 0.069016956 0.048603937 1.1397238 0.6221986
-0.14236605 0.3448254 0.50618494 1.2095684 -0.39572734 0.2789237 0.08161774 -1.0103328
0.9901067 0.61444557 -0.19878423 0.3499427 0.34770897 -0.14930682 0.6462471 0.892174
0.8867191 -0.038346883 0.39928594 0.96808034 0.64884645 0.285439 -0.536195 -1.1721445
0.22686163 0.12037847 0.58635044 0.2670787 0.24730696 0.43564072 0.10523277 0.18331847
-0.24908908 -0.017940419 -0.53322566 -0.056560643 -0.09157707 -0.022193024 0.34873012 0.0945474
-0.47683632 -0.45678908 -0.13635077 -0.15794687 -0.55758715 0.15488212 -0.37029833 -0.9587514
-0.025612896 -0.2279936 -0.016695436 -0.6652764 0.34226066 0.64700156 0.42640707 0.44361624
0.32776645 0.18531999 -0.21651183 -0.31895295 0.65320337 -0.18072587 0.24031496 -0.027505094
0.6967385 0.3072189 0.39660826 1.4046832 -0.63541037 -0.6051362 0.049087685 -0.11018158
1.0601101 1.5700566 0.65417784 0.18283887 0.14677274 0.028874999 -0.67935294 0.35817787
0.4507414 1.358052 0.367473 0.53704536 0.50829715 0.29600137 -0.79082614 -0.23706086
0.6767921 0.538549 0.123771295 0.9616713 0.35250917 -0.15184899 -1.3065517 -0.7566374
-0.40830746 0.5981041 0.27548644 0.45580646 0.32228756 0.188239 0.48845145 -0.21002322
0.17762113 0.07328664 -1.1148914 -0.8819057 0.38472417 0.49950638 0.29951587 0.30693746
0.21501303 1.3596268 1.4128408 -0.16501983 -0.051450215 0.4408528 -0.013521909 0.06753054
-0.62796295 -0.08439242 -0.490719 -0.13411158 -0.48152706 -0.120937616 0.5983505 -0.030055486
0.09315371 0.0652824 -0.18265593 -0.08756781 -0.14537436 -0.3425726 -0.29954275 0.63407236
0.98236287 0.8593906 -0.13053896 0.3291348 0.08234098 -0.5632173 0.36887938 -0.08104452
-0.42315784 -0.328021 -0.22808702 0.12473219 0.1712297 -0.292016 0.9923699 -0.24050297
00000000: 00a4 5cbf 1c5d 7cbf 0ec8 e8bc 8c57 a6bd
00000010: 467d 84be e29b ff3d a84f 233f 2b09 3ebe
00000020: 078d 21bf 2436 15bd 1ec7 5abe 5b5c 5dbe
00000030: a230 febe a8ee 313f 0f02 763d 6aa6 783f
00000040: faaf 2e3f 8c3c 323f 9a86 f3bd 9436 10bd
00000050: 8fda 813e 4762 c4bd 3fc4 f9bc 2bb7 59bf
00000060: a596 47bf 7ce8 0b3f 22bd 003f 0217 95be
00000070: 85f9 303d 5fe8 cd3e 2ffb 333f 5fb2 f1bd
00000080: dd9b 85be dd9d 8b3e 48fa e8bb ac1e 5f3d
00000090: 87fe 22bf c1aa 0f3d bbe0 343f f4fe b63e
000000a0: 3cb6 a13e 6135 203f 8940 8a3d c3ae b23e
000000b0: c358 8d3d ec14 473d 78e2 913f 6848 1f3f
000000c0: 68c8 11be f48c b03e 5695 013f 23d3 9a3f
000000d0: c69c cabe 16cf 8e3e 3427 a73d 9652 81bf
000000e0: a277 7d3f 4e4c 1d3f 188e 4bbe b12b b33e
000000f0: e906 b23e e3e3 18be 7370 253f 8465 643f
00000100: 0600 633f 9f11 1dbd 356f cc3e 1dd4 773f
00000110: cd1a 263f 1025 923e 1344 09bf d508 96bf
00000120: 6a4e 683e fd88 f63d 101b 163f 8abe 883e
00000130: 093e 7d3e 4d0c df3e 4784 d73d d6b7 3b3e
00000140: 3511 7fbe c9f7 92bc 7a81 08bf 22ac 67bd
00000150: c28c bbbd 25ce b5bc c18c b23e 11a2 c13d
00000160: e423 f4be 42e0 e9be 899f 0bbe d3bc 21be
00000170: 08be 0ebf 6b99 1e3e be97 bdbe bb70 75bf
00000180: 23d2 d1bc 2777 69be dec4 88bc 8e4f 2abf
00000190: ca3c af3e e5a1 253f 0752 da3e ab21 e33e
000001a0: 01d1 a73e 86c4 3d3e 47b5 5dbe cd4d a3be
000001b0: 5638 273f 3410 39be 2015 763e 5d52 e1bc
000001c0: 745d 323f cc4b 9d3e 3d10 cb3e a9cc b33f
000001d0: 41aa 22bf 35ea 1abf 2b10 493d e1a6 e1bd
000001e0: b0b1 873f 9df7 c83f 3378 273f 1d3a 3b3e
000001f0: 984b 163e 438b ec3c 13ea 2dbf 1763 b73e
00000200: 94c7 e63e a6d4 ad3f 6c25 bc3e ce7b 093f
00000210: c31f 023f 7e8d 973e 9573 4abf 15c0 72be
00000220: 3f42 2d3f 59de 093f ce7b fd3d 1730 763f
00000230: 157c b43e 4d7e 1bbe 163d a7bf fdb2 41bf
00000240: ad0d d1be 5a1d 193f 8f0c 8d3e 775f e93e
00000250: e002 a53e b9c1 403e 4f16 fa3e 5410 57be
00000260: 50e2 353e 4e17 963d c3b4 8ebf 92c4 61bf
00000270: 91fa c43e 4dbf ff3e 255a 993e e826 9d3e
00000280: 602c 5c3e 4008 ae3f f8d7 b43f f5fa 28be
00000290: 76bd 52bd 75b7 e13e ff8a 5dbc 744d 8a3d
000002a0: 2ec2 20bf efd5 acbd 853f fbbe 8c54 09be
000002b0: b78a f6be 24ae f7bd 802d 193f ec36 f6bc
000002c0: 5fc7 be3d c7b2 853d 280a 3bbe c156 b3bd
000002d0: 04dd 14be ad65 afbe ab5d 99be 9152 223f
000002e0: 227c 7b3f 0601 5c3f 01ac 05be 5b84 a83e
000002f0: 63a2 a83d 022f 10bf c2dd bc3e abfa a5bd
00000300: 25a8 d8be 5ef2 a7be a58f 69be 9773 ff3d
00000310: d756 2f3e 1f83 95be f40b 7e3f 6946 76be

arith.constant2 f4 [6]
-0.040868424 0.17832288 -0.9924153 0.7158805 -0.42346403 0.35917068
00000000: a665 27bd 469a 363e ee0e 7ebf f243 373f
00000010: 47d0 d8be 38e5 b73e

sequential_1/dense_1_2/Add/ReadVariableOp f4 [10]
1.0779045 -0.33289006 0.20979513 0.004985752 0.8992135 0.6750048 0.028382793 0.29650864
-0.24477799 0.7765758
00000000: c6f8 893f 9170 aabe 89d4 563e 855f a33b
00000010: db32 663f 1dcd 2c3f 0883 e83c fbcf 973e
00000020: 15a7 7abe accd 463f

sequential_1/dense_1/Add/ReadVariableOp f4 [20]
-0.54926336 -0.49873435 -0.6034349 -0.38006514 -0.29142606 -0.11977493 -0.969189 -0.5140209
-0.5734516 -0.71582496 -0.3152095 -0.59206223 -0.5341307 0.05650322 -0.5598224 -0.17622648
-0.5937108 -0.67510307 -0.24570045 -0.7951001
00000000: 869c 0cbf 1c5a ffbe b67a 1abf e697 c2be
00000010: cc35 95be 8f4c f5bd c51c 78bf e096 03bf
00000020: b9cd 12bf 4e40 37bf 2463 a1be 6491 17bf
00000030: cabc 08bf ec6f 673d 8550 0fbf b774 34be
00000040: 6efd 17bf 8ed3 2cbf e698 7bbe ae8b 4bbf

sequential_1/dense_1/MatMul f4 [20, 42]
-0.11230768 0.18697599 -0.058728237 0.3466067 0.1396336 0.12584089 0.08193705 0.25292352
0.40827367 0.24511614 -0.17695796 -0.054081894 -0.18768567 -0.02007878 0.056349516 -0.06259724
0.18447252 -0.057351835 -0.14808242 0.04041118 -0.110370845 -0.010457675 0.14768463 0.003666422
0.324588 -0.07884959 -0.031904984 0.066181935 0.026788052 0.024719317 0.4221566 -0.048295442
0.22570154 -0.030223614 0.4503063 0.0841908 0.28188205 0.0026311576 0.39672613 -0.040483642
0.5523438 0.025296325 -0.07613745 -0.29608595 0.08761472 -0.4592728 0.077148326 -0.011169793
0.025403727 0.02498859 -1.7270035 0.027642712 0.13785028 0.03117576 0.06961236 0.030573215
0.044012297 0.04549061 -0.0034259476 0.025820522 0.17751051 0.026181594 0.08503178 0.022858184
0.06427052 -0.0019595777 0.031152818 -0.020501532 0.20438834 0.023722244 0.16446215 0.010952247
0.09517155 -0.027573407 -0.047881693 -0.036005937 -0.31245038 0.020701492 0.14937365 0.005879699
0.154249 -0.021854188 0.33256385 -0.029068401 0.26914465 -0.24114998 -0.049171574 -0.047231745
-0.0047474788 -0.0009111999 -0.049834866 -0.013027738 -1.2003914 -0.039390475 0.07348599 -0.01757481
0.09221801 -0.007377017 0.039586153 -0.009369115 0.08768177 0.04015306 0.16848843 -0.0011596197
0.06365151 -0.011784241 0.03991468 0.021093206 0.09984872 0.05220914 0.15493873 0.012329521
-0.09808643 0.0035345345 -0.05434761 0.023648212 -0.0127032595 0.03825748 -0.049376078 -0.010211741
-0.5168865 -0.010216164 -0.3815153 0.00564727 -0.20913135 0.047647085 0.25059223 -0.22591293
-0.07172707 0.6461138 0.07468227 0.32568154 0.028744189 0.09327846 0.4871076 0.10259314
-0.003072076 0.14823598 -0.047107045 0.13280581 -0.04925225 0.18448102 -0.16984995 0.13858639
0.015143087 0.112323605 0.020238154 0.09296422 0.05897892 -0.062020697 -0.12354716 -0.27480796
0.005824329 0.04239782 -0.1241034 0.055758882 -0.1644339 -0.06096624 -0.28583303 -0.05841608
-0.44720992 0.04713767 -0.52928084 0.030045059 -0.6110285 -0.20342378 -0.6219152 -1.2891426
0.0042823553 -0.12279186 -0.015516914 0.4646935 0.044931185 0.19997776 -0.012066564 0.107681826
0.04074467 0.15474042 -0.015278538 0.17887054 0.023395121 0.10842867 -0.019186033 0.10111216
-0.017782463 0.07993096 0.065132804 0.13319255 -0.023590786 0.09415996 0.0023349365 0.03335199
0.035049744 -0.018730478 0.033951163 0.11989183 -0.14638159 0.08545937 0.11561203 -0.05701486
-0.14798774 -1.6369983 -0.061382584 0.10912863 -0.4413664 0.110354535 -0.19945092 0.09579268
-0.3493961 0.04480844 0.015246898 0.13080093 0.09041913 0.95675415 0.054240353 0.49546102
0.01747272 0.2680189 -0.14712992 0.20775905 0.0938105 0.25923946 0.020406617 0.22844072
-0.05545626 0.16555992 -0.039469123 0.13842918 0.07305164 0.14342609 -0.032882143 0.14251627
0.091107525 -0.37255907 -0.1507194 -0.69949365 0.053040054 0.16316831 -0.06712183 0.088516116
0.019124541 -0.41002315 0.3885962 -0.39921874 0.14857511 0.07688039 0.045486704 0.10227585
0.6386184 -0.13839994 0.6510683 -0.34932825 -0.21591887 -0.04769343 -0.15187368 -0.13617322
00000000: 9201 e6bd a276 3f3e 058d 70bd 6f76 b13e
00000010: 1cfc 0e3e 6fdc 003e 9dce a73d 317f 813e
00000020: 3f09 d13e baff 7a3e 7834 35be fa84 5dbd
00000030: ac30 40be 417c a4bc c0ce 663d fb32 80bd
00000040: 5de6 3c3e c2e9 6abd eba2 17be 3286 253d
00000050: 1c0a e2bd ab56 2bbc a43a 173e 5b48 703b
00000060: 6630 a63e e57b a1bd cdae 02bd 658a 873d
00000070: 9e72 db3c 2a80 ca3c e924 d83e 71d1 45bd
00000080: 4e1e 673e 8397 f7bc 8c8e e63e 3a6c ac3d
00000090: d852 903e 806f 2c3b b01f cb3e 2dd2 25bd
000000a0: 6766 0d3f 3d3a cf3c f4ed 9bbd 9498 97be
000000b0: 596f b33d ce25 ebbe f1ff 9d3d 8201 37bc
000000c0: 7a1b d03c dfb4 cc3c 730e ddbf f872 e23c
000000d0: a028 0d3e 4f64 ff3c ed90 8e3d ae74 fa3c
000000e0: 3d46 343d 5d54 3a3d dd85 60bb 8f85 d33c
000000f0: 51c5 353e c87a d63c 2425 ae3d 1641 bb3c
00000100: 43a0 833d 426c 00bb 3234 ff3c d4f2 a7bc
00000110: 2d4b 513e 2755 c23c c468 283e 0e71 333c
00000120: 4de9 c23d a0e1 e1bc 981f 44bd f67a 13bd
00000130: 7ff9 9fbe 2d96 a93c 68f5 183e 7daa c03b
00000140: 73f3 1d3e 8e07 b3bc cf45 aa3e db20 eebc
00000150: 54cd 893e 05f0 76be 2268 49bd 1376 41bd
00000160: bd90 9bbb 97dd 6eba a51f 4cbd 4b72 55bc
00000170: 6da6 99bf e857 21bd d37f 963d 0cf9 8fbc
00000180: ccdc bc3d e7ba f1bb 1725 223d eb80 19bc
00000190: 8092 b33d 8977 243d 3b88 2c3e 61fe 97ba
000001a0: b95b 823d b012 41bc 937d 233d a9cb ac3c
000001b0: 7c7d cc3d 40d9 553d 42a8 1e3e c201 4a3c
000001c0: 8ae1 c8bd a6a3 673b 999b 5ebd e5b9 c13c
000001d0: 5521 50bc e0b3 1c3d 923e 4abd 254f 27bc
000001e0: ac52 04bf b361 27bc f955 c3be bc0c b93b
000001f0: 8726 56be 9729 433d a04d 803e b855 67be
00000200: a4e5 92bd b767 253f 05f3 983d bbbf a63e
00000210: ef78 eb3c c708 bf3d 2b66 f93e 5a1c d23d
00000220: e254 49bb 2ccb 173e 51f3 40bd 3ffe 073e
00000230: babc 49bd 98e8 3c3e 25ed 2dbe 97e9 0d3e
00000240: b61a 783c eb09 e63d 7cca a53c 0664 be3d
00000250: e193 713d 6a09 7ebd 4b06 fdbd a1b3 8cbe
00000260: 03da be3b 56a9 2d3d ec29 febd 6d63 643d
00000270: 5c61 28be bcb7 79bd b558 92be b345 6fbd
00000280: b3f8 e4be 6e13 413d f37e 07bf 0e21 f63c
00000290: 5d6c 1cbf 534e 50be d635 1fbf a002 a5bf
000002a0: 0053 8c3b 4c7a fbbd a83a 7ebc 4eec ed3e
000002b0: c309 383d f8c6 4c3e d6b2 45bc 4a88 dc3d
000002c0: e2e3 263d 4674 1e3e d552 7abc d729 373e
000002d0: 20a7 bf3c da0f de3d 072c 9dbc e413 cf3d
000002e0: 87ac 91bc d8b2 a33d 5964 853d a163 083e
000002f0: 7741 c1bc f0d6 c03d bc05 193b 199c 083d
00000300: 5290 0f3d a970 99bc 6010 0b3d d989 f53d
00000310: 0ee5 15be 5205 af3d 00c6 ec3d 6a88 69bd
00000320: 198a 17be 2989 d1bf 4e6c 7bbd d57e df3d
00000330: c7fa e1be 8f01 e23d dd3c 4cbe f42e c43d
00000340: 0ce4 b2be 0e89 373d 20ce 793c aef0 053e
00000350: aa2d b93d d7ed 743f 222b 5e3d 11ad fd3e
00000360: f322 8f3c c639 893e 3aa9 16be cabe 543e
00000370: b81f c03d 09bb 843e c72b a73c 5dec 693e
00000380: 1a26 63bd 8a88 293e 60aa 21bd 61c0 0d3e
00000390: 199c 953d 4ade 123e 6daf 06bd c9ef 113e
000003a0: 9596 ba3d 10c0 bebe 3056 1abe 0412 33bf
000003b0: 8740 593d 9815 273e 2c77 89bd f047 b53d
000003c0: 12ab 9c3c 8eee d1be 15f6 c63e 6666 ccbe
000003d0: 1324 183e 7773 9d3d 4450 3a3d 0076 d13d
000003e0: 7f7c 233f b7b8 0dbe 69ac 263f 27db b2be
000003f0: d619 5dbe 305a 43bd c684 1bbe fe70 0bbe
